embedding_net.pth (torch, 424125 bytes, 1 tensors)

weight f4 [800, 132]
2.4880173 2.5383728 2.3386464 -2.5368543 2.5279377 -2.561602 2.4255297 2.5560777
-2.569882 2.4934433 2.5259042 2.5187829 2.5270479 2.5396912 -2.4238515 -2.5409412
2.506626 -2.5306416 2.4488876 2.5184386 2.455644 2.524925 2.2259493 -2.5558372
-2.5158355 -2.49894 2.5484414 2.547094 -2.5337849 2.5374663 2.5373914 2.5046585
-2.5257368 -2.5151658 -2.5187771 -2.526595 2.4912496 -2.5355735 2.2733095 2.5515678
-2.5687897 2.1649618 2.5383532 -2.5123012 2.530671 -2.4931376 2.5500875 2.5181758
2.4495037 -2.4769015 -1.6246893 2.284809 -2.4816203 -2.4810042 2.1000044 2.5244853
-2.4295478 -2.5417762 2.5186388 2.5186732 2.5326612 -2.5001793 -2.5341487 -2.543107
-2.474301 2.469487 -2.5072558 2.5299592 -2.5170457 -2.5097435 -2.4990852 2.5510721
-2.4918342 2.5157661 -2.4496903 2.5069723 2.4997041 2.5238147 2.5007482 -2.4587564
-2.5145257 -2.476095 2.5130017 2.551905 2.5177813 -2.5684347 -2.5484843 -2.5120227
-2.4995303 -2.3130543 2.1460989 2.5782943 2.5306952 -2.531543 -2.499351 -2.5651636
-2.4956403 -2.5196283 -2.5860658 2.5036294 2.5415754 2.03997 2.4981325 2.5258207
2.5432467 -2.47579 -2.5570245 2.5203195 2.4784992 2.5115964 -2.3514009 -2.511632
2.409854 2.4702349 -2.4819703 2.490378 2.5228286 -2.4752648 2.5187223 2.3632462
-2.4839554 -2.5293553 2.51962 -2.4958575 2.5232801 -2.5411406 -2.5286732 -2.5166366
2.4687953 -2.5448236 2.510291 2.467137 1.1036495 0.9025274 0.9569529 -0.7322518
-0.6755189 -0.72773093 -0.59984523 0.71929324 -0.7289239 -0.6816169 0.3478527 0.7353255
-0.72878087 -0.70756954 -0.8194792 -0.76241046 0.8286539 0.8021862 -0.17138638 -0.7717603
0.92977375 0.8526584 -0.6906744 0.6211487 -0.61035347 -0.98317724 0.7652745 0.923519
-0.8934835 0.85448974 0.73994243 -0.6367939 0.68945014 -0.94301426 -0.81972003 -0.94505924
0.48095736 -0.883848 0.862341 0.5388486 -0.18425873 0.10800239 -0.7653372 0.5605391
-0.7781483 -0.7667319 -0.54156345 0.7009406 0.895203 -0.9552281 0.31388664 -0.95051736
-0.87789893 -0.5887354 -0.8725217 0.9376526 0.8380724 -0.18172795 0.7547056 -0.75014514
-0.47329646 0.65849084 0.69152683 -0.96174794 0.74156934 -0.4820692 -0.72378695 -0.6475173
0.5205904 -0.91563654 0.4157257 -0.6470804 -0.7858519 -0.31741464 -0.74242806 -0.7623858
-0.8946947 -0.38562155 -0.6334078 0.7117956 0.51778716 -0.86186004 0.922357 0.92811793
-0.95059216 -0.027318835 -0.598608 0.6723565 -0.8164181 -0.880527 -0.8798649 0.7760106
-0.62145066 -0.9178261 -0.935663 0.78383255 0.4405384 0.73216397 0.88010955 0.9402624
0.8400326 -0.78553903 -0.67774254 -0.64652616 -0.6927798 0.918575 0.2126302 0.43556637
0.9028701 0.9652166 0.67770165 -1.0606197 -0.9921006 0.7992314 -0.57416654 -0.6708461
0.85573417 -0.95526177 -0.66738254 0.75190234 0.63192207 0.6192326 0.7481143 0.7371699
00000000: ad3b 1f40 b374 2240 62ac 1540 d25b 22c0
00000010: bbc9 2140 4af1 23c0 e13b 1b40 c796 2340
00000020: f278 24c0 9394 1f40 6aa8 2140 bd33 2140
00000030: 27bb 2140 4d8a 2240 6220 1bc0 c89e 22c0
00000040: 8f6c 2040 08f6 21c0 93ba 1c40 192e 2140
00000050: 4529 1d40 5f98 2140 f475 0e40 d692 23c0
00000060: 7303 21c0 a2ee 1fc0 aa19 2340 9703 2340
00000070: 8829 22c0 d965 2240 9f64 2240 534c 2040
00000080: aca5 21c0 7af8 20c0 a533 21c0 bcb3 21c0
00000090: a270 1f40 d646 22c0 e77d 1140 e34c 2340
000000a0: 0d67 24c0 bc8e 0a40 6174 2240 8bc9 20c0
000000b0: 83f6 2140 918f 1fc0 a234 2340 cb29 2140
000000c0: abc4 1c40 8e85 1ec0 d2f5 cfbf 503a 1240
000000d0: ded2 1ec0 c6c8 1ec0 7966 0640 2b91 2140
000000e0: b67d 1bc0 76ac 22c0 6131 2140 f131 2140
000000f0: 1f17 2240 f002 20c0 7e2f 22c0 44c2 22c0
00000100: f35a 1ec0 130c 1e40 e176 20c0 daea 2140
00000110: 4717 21c0 a39f 20c0 03f1 1fc0 c444 2340
00000120: 367a 1fc0 5002 2140 bac7 1cc0 3c72 2040
00000130: 27fb 1f40 2e86 2140 420c 2040 445c 1dc0
00000140: fded 20c0 5778 1ec0 05d5 2040 6952 2340
00000150: 5423 2140 3c61 24c0 5e1a 23c0 fbc4 20c0
00000160: 4ef8 1fc0 1509 14c0 af59 0940 c602 2540
00000170: e9f6 2140 cd04 22c0 5ef5 1fc0 a42b 24c0
00000180: 92b8 1fc0 9741 21c0 1a82 25c0 773b 2040
00000190: 2ca9 2240 de8e 0240 67e1 1f40 0ca7 2140
000001a0: 8ec4 2240 5873 1ec0 4aa6 23c0 ea4c 2140
000001b0: bb9f 1e40 ffbd 2040 5a7d 16c0 94be 20c0
000001c0: 0c3b 1a40 5418 1e40 9ad8 1ec0 5a62 1f40
000001d0: 0676 2140 bd6a 1ec0 bf32 2140 6d3f 1740
000001e0: 20f9 1ec0 f5e0 21c0 7441 2140 21bc 1fc0
000001f0: 6c7d 2140 0ca2 22c0 c8d5 21c0 9310 21c0
00000200: be00 1e40 64de 22c0 9ca8 2040 93e5 1d40
00000210: 6344 8d3f 090c 673f defa 743f db74 3bbf
00000220: ceee 2cbf 934c 3abf 758f 19bf 9a23 383f
00000230: c29a 3abf 727e 2ebf c019 b23e 4b3e 3c3f
00000240: 6291 3abf 4723 35bf 64c9 51bf 552d 43bf
00000250: a922 543f 135c 4d3f e97f 2fbe 1592 45bf
00000260: a705 6e3f d247 5a3f 0ad0 30bf 9a03 1f3f
00000270: 2040 1cbf 81b1 7bbf 08e9 433f be6b 6c3f
00000280: 56bb 64bf d7bf 5a3f de6c 3d3f ed04 23bf
00000290: ce7f 303f 6269 71bf 2cd9 51bf 67ef 71bf
000002a0: 0b40 f63e dd43 62bf 61c2 5c3f fbf1 093f
000002b0: 52ae 3cbe 5b30 dd3d 24ed 43bf 7e7f 0f3f
000002c0: ba34 47bf 8b48 44bf e7a3 0abf d870 333f
000002d0: 062c 653f d489 74bf c0b5 a03e 1b55 73bf
000002e0: fcbd 60bf 5db7 16bf 955d 5fbf 000a 703f
000002f0: ea8b 563f e416 3abe 6334 413f 8309 40bf
00000300: ea53 f2be db92 283f e707 313f 1d35 76bf
00000310: 7dd7 3d3f c6d1 f6be 1a4a 39bf b2c3 25bf
00000320: 6a45 053f 2867 6abf 00da d43e 10a7 25bf
00000330: 972d 49bf 2c84 a2be c40f 3ebf b72b 43bf
00000340: b60a 65bf 3070 c5be 0327 22bf 3d38 363f
00000350: b38d 043f dca2 5cbf 971f 6c3f 2399 6d3f
00000360: 025a 73bf c0cb dfbc 603e 19bf 8e1f 2c3f
00000370: c700 51bf 386a 61bf d33e 61bf a1a8 463f
00000380: 6417 1fbf a7f6 6abf 9c87 6fbf 40a9 483f
00000390: 408e e13e 196f 3b3f dc4e 613f 09b5 703f
000003a0: 600c 573f 1619 49bf 8980 2dbf bd82 25bf
000003b0: 045a 31bf bb27 6b3f bbbb 593e 8e02 df3e
000003c0: 7f22 673f 6f18 773f db7d 2d3f 63c2 87bf
000003d0: 4efa 7dbf 6e9a 4c3f 94fc 12bf 92bc 2bbf
000003e0: 6511 5b3f 098c 74bf 95d9 2abf ac7c 403f
000003f0: a5c5 213f 0786 1e3f 6b84 3f3f 2bb7 3c3f
